trained_model/CNN.pt (torch, 662917 bytes, 10 tensors)

conv1.weight f4 [16, 1, 4, 4]
00000000: 61e0 1fbe adb9 eb3d dffd 843e da34 1fbe
00000010: 7080 8c3c 4cd0 cc3d 64c8 33be 1940 2b3c
00000020: ae08 a73d 8f8f 5ebe 7f14 76bd f231 30be
00000030: 0da8 693e 8a97 043e eac4 45ba 5021 8cbc
00000040: 17bb 513e 10ce 79be 8d73 42be b569 5c3e
00000050: 0455 173e 77c6 1a3e 0031 163e 85d4 633d
00000060: eb9e 553e c90e db3d b915 9dbd 83c4 18be
00000070: 02f5 e3bd 10e0 f63d e636 3d3e 8283 ca3d
00000080: e3ae b5bd bd8c 6ebe 2644 acbd e400 61be
00000090: 5da7 7e3e b347 7e3d d9c2 fa3d aa3c 27be
000000a0: 6c11 8f3d cba9 9f3d 015b 503d a857 bbbd
000000b0: 8d90 62be 3e07 6b3e d9d4 ca3c 6384 663e
000000c0: 740a 553e f96e 6c3e c1a6 633e def1 66be
000000d0: 5967 82be d5bf 9d3d fe59 0c3e 93a5 1f3e
000000e0: f887 6ebe 5de7 ebbd 875d debc c569 f8bd
000000f0: 8ebf 333e 4ad9 1a3c 7c36 4abc 93cb 78be
00000100: d761 0c3e 413b 49bc b96c 7bbd 4a2b 313e
00000110: edfa fe3b 8893 473e e04c bebd 62ea 33be
00000120: 8c5a 9d3d f995 13be e513 023e 53d8 2fbe
00000130: 9bdd 08be 2626 1fbd 6f94 dbbd 190a 9dbc
00000140: bd8b ecbc a82a 223e 4a61 563e 1a6e 82be
00000150: 7248 753d 3337 8c3d 654e 5d3d d8da 1dbe
00000160: 0821 183e f71f 75be af4a c6bd 9bae 86bd
00000170: 391b 393d d8bc 5a3d 28e9 b63d 8b40 1f3e
00000180: 705d 0abe 2190 78bd fdac c63c 9960 32be
00000190: b9d0 3bbd 0d65 4abe 7869 433e fd82 88bd
000001a0: 6bb9 17be 3bb9 183e ee59 4ebd a623 52bc
000001b0: 69fb 983d 1c8a 273e c6fb c83d fd18 353e
000001c0: ee45 4dbc 6636 893d 2481 68bc a835 913d
000001d0: 70f5 053d 7dce 58be 0fb6 243e e972 703c
000001e0: 9787 ce3d 4cf6 60be 3729 393e 5c1f c73d
000001f0: ea0b 62be 4223 4b3e 46e0 c7bb b3a4 9eba
00000200: 4732 053e 7f67 56be f638 a8bd 543e f53c
00000210: 33e0 aa3d bc40 d83d 999c efbc 1d80 093e
00000220: 136d 75be fc9a 183e ec7d 223b 5174 0dbd
00000230: dae6 5abe fc83 11be 1bfb 203e 780f 203e
00000240: 0405 18be f3c2 153e 4a71 3e3d 5dac adbc
00000250: 5530 b33d 00f9 ccbc a17b 94bd 411a 7cbe
00000260: ddc6 42bd 3e29 c53d 8dda 59bd 2875 d0bd
00000270: 7db1 b43d 954b b9bd 75aa 173e 46b6 4a3e
00000280: fa39 033e ed6f 24be adff 69bd 76d7 303e
00000290: ff71 5e3e 5ade 1bbe ea3c f9bd 13c2 bb3d
000002a0: 32da 5d3e bbd8 6ebe 4545 0abe a345 563d
000002b0: 5e9a 1cbd c29f debc b44d 463d fead 1bbd
000002c0: b6c4 3d3d 366c 2dbd 9ad7 51be 627d 14bc
000002d0: fb43 4dbe 886c 0f3d 4f2a 2cbe 195a 563e
000002e0: 4494 d6bc 3a13 58be 4970 8cbd a7fe 403d
000002f0: 7eea 743e 598e 30be 6458 873e 56d0 7e3b
00000300: ba07 94bd 2dd7 3e3e f67d 953d 8c08 26be
00000310: 943d e73d 1c1f 2b3e 5268 44bd 9530 553d
00000320: b66f 193e 96bd aa3d ce8a d93c 0ecf 43be
00000330: d81f cebd 3de3 663d f297 43be 3747 123d
00000340: 018d cdbd f9ce 1cbd affe 0dbe 1e1a 633e
00000350: bfeb db3d b6c7 0dbe c010 a03d c2b9 f03d
00000360: 0bac 82be 4b6c fbbc fc71 e53c 66d2 363d
00000370: 9131 0e3e bc20 153e 55d1 443d 124b 67be
00000380: 6e76 153c d857 98bd 73e5 863e 9a62 d43d
00000390: 0ccf 29be 10eb 46be 3fdf 5fbb ebd9 30be
000003a0: c60c 6fbb b1e9 0ebe 211e aabd 24c7 35be
000003b0: 075a 0a3e 28d0 f7bc 9227 6a3e 6e44 de3d
000003c0: 9eca 873e 2cfa 523e a144 6a3e c680 e1bd
000003d0: b076 e8bd d24b 5abe 278f 643d 7a67 babc
000003e0: 7dbc 423e d49d 49be f15e 1abe 6f9c 673e
000003f0: dfcb 31bb 7f83 07be 9e69 0dbd 44d9 4fbe
-0.15612938 0.11510024 0.25974938 -0.15547505 0.017151088 0.10000667 -0.17556912 0.010452294
0.081559524 -0.21734451 -0.06007814 -0.17206553 0.22818013 0.12948433 -0.0007544296 -0.017105728
0.20481525 -0.24395013 -0.18989392 0.21524699 0.14778525 0.15114771 0.1466713 0.055622596
0.20861404 0.106961794 -0.07670159 -0.14918713 -0.11130716 0.12054455 0.18477973 0.098883644
-0.088712476 -0.23295875 -0.08411436 -0.21972996 0.24868532 0.062080096 0.122441955 -0.16331735
0.06985745 0.07796057 0.050868038 -0.091475785 -0.22125454 0.22951981 0.024759697 0.22511439
0.20804769 0.23089208 0.2223158 -0.22553203 -0.25469473 0.07702605 0.13706204 0.15590505
-0.23294055 -0.115187384 -0.027144207 -0.12129549 0.17553541 0.00945122 -0.012342092 -0.24296407
0.13709198 -0.012282194 -0.061382983 0.1730167 0.0077813775 0.19489872 -0.092920065 -0.17569879
0.07683286 -0.14412679 0.12702902 -0.17172365 -0.13365786 -0.03885474 -0.10721671 -0.019169854
-0.028875226 0.15836585 0.2093555 -0.25474626 0.059883542 0.06846466 0.05402984 -0.15415514
0.1485635 -0.23937975 -0.096822135 -0.06576272 0.045191977 0.05340275 0.0893119 0.15551965
-0.13512206 -0.060684327 0.02425241 -0.17419662 -0.04585335 -0.1976511 0.19083202 -0.06665609
-0.14816825 0.1491441 -0.050378732 -0.012825882 0.07469828 0.16361278 0.09813647 0.17685314
-0.01252888 0.06699829 -0.014190946 0.07090312 0.03270477 -0.21172519 0.16085075 0.014675834
0.100844555 -0.21968955 0.18082128 0.09722778 -0.22074857 0.19837669 -0.0060997335 -0.0012103528
0.1300746 -0.20937918 -0.082139894 0.029936947 0.08343544 0.10559222 -0.029249476 0.13427778
-0.2396739 0.14902872 0.0024794294 -0.034534756 -0.21377125 -0.14210504 0.15720789 0.15630901
-0.14845663 0.14625148 0.04649476 -0.021200353 0.08749453 -0.025021076 -0.07250143 -0.2461939
-0.047552932 0.09627007 -0.053186942 -0.10178596 0.08822916 -0.09047619 0.14811118 0.19796094
0.12815085 -0.16058321 -0.057128597 0.17269692 0.21723174 -0.15221539 -0.121698216 0.09167876
0.21665266 -0.23324864 -0.13502987 0.052312505 -0.038233154 -0.027175788 0.048413947 -0.03800773
0.046330176 -0.042339526 -0.20492402 -0.009063097 -0.20045464 0.035015613 -0.16813014 0.20932807
-0.026193745 -0.21101084 -0.06857354 0.047117855 0.23917577 -0.17241801 0.26434624 0.0038881502
-0.07228036 0.1863677 0.07299416 -0.16214198 0.11291042 0.16711086 -0.04795105 0.052048285
0.1498402 0.08336942 0.026555445 -0.19121954 -0.100646675 0.056369055 -0.19100931 0.035712447
-0.1003666 -0.038283322 -0.13866685 0.22177932 0.107383244 -0.13845715 0.07815695 0.117541805
-0.25521883 -0.030691287 0.028008454 0.044634245 0.13886096 0.14563268 0.048051197 -0.22587231
0.009122474 -0.0743863 0.2634693 0.10370369 -0.16582888 -0.19425607 -0.0034160165 -0.17270629
-0.003647612 -0.13956334 -0.08306528 -0.17751747 0.13510905 -0.030250624 0.22866657 0.10852896
0.26521772 0.20603245 0.22877742 -0.1101089 -0.11350763 -0.21317986 0.055800583 -0.02275442
0.19017215 -0.19689113 -0.1507528 0.22618268 -0.0027129573 -0.13233756 -0.034524553 -0.20297724

conv1.bias f4 [16]
00000000: 248a 1ebe 206c 80bd 2331 5e3e d23a 1cbe
00000010: ae77 8abe c06c 0b3d 1fd3 c93d da3d 11be
00000020: a449 13be 888a 27be ae37 3cbe ab12 723d
00000030: 5170 7ebc 24ca 3d3e 9490 84bd 81c3 3d3e
-0.15482384 -0.06270623 0.21698432 -0.15256813 -0.27044433 0.03403926 0.09854721 -0.14183751
-0.1438356 -0.16361439 -0.18380615 0.059099834 -0.015529708 0.18534142 -0.064728886 0.1853161

conv2.weight f4 [32, 16, 4, 4]
00000000: 9e46 663d 38ac 71bd 8791 5f3d 227f 073c
00000010: 1ae1 23bd 2f89 273d 7a15 883c 453c 70bc
00000020: 9f6f b13b 8a48 7fbc 37c7 b3bc af9e aebc
00000030: 5e7c bf3c e7e3 82bd 3e69 d73c 3dde 9bbc
00000040: a952 a23c f0ba 87bc fa5d 02bd 7637 c03c
00000050: 47c1 4f3d 32b9 15bd 6cfe 703c 1720 05bd
00000060: cb55 21bd d6c7 86bd 70f4 8bbd f785 c6bc
00000070: 8228 4e3d 76fc 94bc 12dd 9f3d 1604 803c
00000080: 2752 133b c72c 5a3d e026 0ebd b90e 813d
00000090: 89cf 2d3d f2bb 43bc 1f42 2b3d 85d9 41bd
000000a0: d0ab 1b3d d6ac e7bb 65f8 bc3a b69e 653c
000000b0: c109 90bd 23e9 5abd 05c8 0f3d 0438 2cbd
000000c0: 71e0 3ebd 387d ff3c 5f15 293d 76fb f8bb
000000d0: c23d 56bc acd2 3b3d 41d5 18bb 9da6 8a3d
000000e0: c488 16bd b9f8 633d 36c8 13bd 33ea 353c
000000f0: e6ac f63c 63f6 25bc 12dc 99bd 7411 18bd
00000100: 00a7 96bc 1944 8ebd 368e 80bd a0e1 1dbd
00000110: 758f 3b3d 7fd9 153d e344 6b3c 65e6 62bd
00000120: ff29 18bd 981e 873c fcbf ae3a a32f c0bb
00000130: e0f3 19bc 6670 f53c 1cff 863c 4347 153c
00000140: b52c 0f3d c3de f2bc fc68 4cbd 8423 26bc
00000150: 36be 4ebd f65f 813d d427 0bbd a801 4fbd
00000160: 8653 61bd 8aae 5a3c 869e 2bbd b32f 863d
00000170: f8cd 04bd ccac 45bd 2e94 e3bc 3254 0f3d
00000180: cc0d 9ebc d22e 143d 2ac2 b8bc e893 b03c
00000190: cb17 cabb 01e1 50bd b138 debb d8c1 2b3c
000001a0: 3885 15ba 63a4 5d3c a83c 88bd 9093 debc
000001b0: 0bbe 623b 6784 623d 9707 e1bc e0e2 87bd
000001c0: c949 e43c 4bec 9bbc 7bd1 163d 5fdc 52bd
000001d0: fd5f 8ebd ab40 21bd e4bc 7fbd c695 0ebd
000001e0: c2d9 12bd a75c 893c 3d96 893b 1536 263d
000001f0: 8186 d5bc a4ff 00bd ad6e 91bc 897f e23c
00000200: c1a3 5fbb fd0c d1bc 3be3 9a3d bcc6 983d
00000210: e9a2 80bd 2127 1f3d 3972 09bd b1f8 2abd
00000220: 2f92 1abd 5aed eebc 7143 b83c 5561 39bb
00000230: 43f9 acb9 a4c2 90bd 8c68 17bd 8f49 97bc
00000240: 498f 06bd 566b 30bd 62ec cabc e306 ddbc
00000250: 6f7a 5a3d 1229 05bd 14bc e1bb b00b 833d
00000260: b00e 3d3c a610 54bb 1439 343d d28a 28bd
00000270: c10f 5f3d 75c3 f8bc 82af 06bd 81ac 94bd
00000280: 18c0 ac3c d6d5 d43c c072 94bc 8282 1abd
00000290: 08b6 ab3c b6db 36bc 9eb3 8b3c 1579 853c
000002a0: c253 e2bc fe23 97bc 6fc0 11bd ca6c e6bc
000002b0: fced 77bd 0928 813d 2655 05bd c92c 2bbd
000002c0: 96fa 573c a217 273d bc29 29bc 3d99 5b3d
000002d0: 747b 0bbd 8e64 07bd e7c9 a1bc 1f74 65bc
000002e0: 8ddf 7d3c 2c76 2bba 3870 983c 3a4c b13c
000002f0: 2cc1 d23c 7318 5dbd b5db 593d 084b 293d
00000300: 4734 e8bc a617 493c 1d77 38bd 3e6c 633d
00000310: fa96 9cbc 973c 4f3d 1ffc 833d ecd7 80bd
00000320: be2c ed3b 3252 a83d 590c b6bd 0df0 67bd
00000330: d60c 0a3d 21e7 323d 9a1d 773b 2a40 fe3c
00000340: 5a4f 1ebd 7cc1 503d a60f 813d c069 503a
00000350: a475 1b3d 697d 823d 25db 2ebd e873 853d
00000360: 095b 5ebd 8e4c 7f3d 9104 e73c 1cd5 1dbd
00000370: 1a3a 20bd 1384 b33c 2709 dbbc 3c17 89bc
00000380: 1f7b 25bd ba62 23bd b36f 903c e43f f43c
00000390: f1ac 50bd 4195 043d 4045 43bd ee92 4c3d
000003a0: a9ad d53c 1f61 873c 90cc 593d 0aa0 77bc
000003b0: 370e 9abc 84a4 d0bc acbc 2ebb 77c3 c23b
000003c0: 614e 79bd 217d 8dbc 5b1e 713d e253 723d
000003d0: 6a6a 9abc 2f82 063c d4f6 2ebd 2440 d93c
000003e0: d0d0 883c 92fd 833c 3c67 4e3c 3a9e aabc
000003f0: fd25 01bd 8667 9ebc 6d4c 433c 3bc8 d93c
0.05621969 -0.05900213 0.054582145 0.008270057 -0.040009595 0.040902313 0.016611803 -0.014662807
0.0054149176 -0.0155812595 -0.021945579 -0.0213159 0.023374733 -0.06391125 0.0262953 -0.01902687
0.019814806 -0.016568631 -0.031827904 0.023463946 0.050721433 -0.03655357 0.014709096 -0.032501306
-0.03938846 -0.065810844 -0.06833732 -0.024233801 0.0503316 -0.018186789 0.07805838 0.015626948
0.0022479387 0.05326536 -0.034705043 0.06301636 0.04243425 -0.011946665 0.041811105 -0.047326583
0.03800565 -0.007070164 0.0014417289 0.01401489 -0.070331104 -0.053444993 0.035102863 -0.04204561
-0.046600763 0.031187639 0.041280147 -0.007598336 -0.013076248 0.04585521 -0.0023320469 0.0677006
-0.036751524 0.055657122 -0.036079608 0.011103201 0.030111741 -0.010129544 -0.07512678 -0.03712602
-0.018390179 -0.06946582 -0.062771246 -0.03854525 0.04579111 0.036584374 0.014359686 -0.055395503
-0.037149426 0.01649408 0.0013332362 -0.0058650537 -0.009396523 0.029960822 0.016479068 0.009111228
0.034954745 -0.029647237 -0.04990481 -0.0101403035 -0.050474368 0.06317131 -0.03397353 -0.05053869
-0.055011295 0.013347277 -0.041899227 0.06552067 -0.03242299 -0.048260495 -0.027780619 0.034992404
-0.019293688 0.036177464 -0.022553522 0.021554902 -0.006167387 -0.05099583 -0.0067816605 0.010483228
-0.000570375 0.013527962 -0.06652194 -0.027169973 0.0034598138 0.05530205 -0.02746944 -0.0663507
0.027867215 -0.019033572 0.03682087 -0.051479694 -0.06951902 -0.039368313 -0.062436 -0.034810804
-0.0358522 0.016767813 0.004198818 0.04057892 -0.026065113 -0.031493798 -0.01775297 0.027648704
-0.0034124705 -0.025518889 0.07562872 0.074597806 -0.06281073 0.038855676 -0.033556197 -0.041741077
-0.037737068 -0.029165912 0.022493096 -0.0028286774 -0.0003299211 -0.07068375 -0.036964938 -0.018467693
-0.03285149 -0.043071114 -0.02477092 -0.026980823 0.053339418 -0.03250987 -0.0068888757 0.063987136
0.011539146 -0.0032358556 0.043999746 -0.041148014 0.054458383 -0.030366639 -0.03288222 -0.07259465
0.021087691 0.025980871 -0.018121123 -0.03772212 0.020960823 -0.011160782 0.017053422 0.016293088
-0.02762783 -0.01844978 -0.03558391 -0.028128047 -0.060529694 0.06306464 -0.032551907 -0.041790757
0.013182303 0.040794022 -0.010324892 0.053612936 -0.03405328 -0.03305488 -0.019749595 -0.014004736
0.015495193 -0.00065407413 0.018608198 0.021642793 0.025726877 -0.053978395 0.053188045 0.04133132
-0.02834524 0.012273705 -0.04503547 0.05552315 -0.01911496 0.050594892 0.06444573 -0.06291184
0.0072379997 0.082188025 -0.08889074 -0.056625415 0.033703648 0.043677453 0.0037706853 0.031036455
-0.038649894 0.05096577 0.06301813 0.0007950328 0.037953988 0.06371576 -0.04268946 0.06516248
-0.054286037 0.062328868 0.02820042 -0.038533315 -0.03911791 0.021913564 -0.026737763 -0.016734712
-0.04040062 -0.039889075 0.017631387 0.029815622 -0.05094618 0.032368902 -0.047673464 0.04994481
0.026083784 0.016525803 0.0531736 -0.01511384 -0.018805606 -0.025469072 -0.002666275 0.0059437114
-0.060865764 -0.01727158 0.05886684 0.059162028 -0.01884957 0.008209749 -0.042715862 0.026519842
0.016701132 0.016112123 0.012597855 -0.020827401 -0.03153037 -0.019336473 0.011920077 0.026584735

conv2.bias f4 [32]
00000000: cc2e 073b 4391 0abc 7668 c53b 8ee8 9d3c
00000010: d8f5 67bd 1e09 1cbb ec5a 45bd fdd9 8fbc
00000020: a68b 00bc ea56 24bd b8c1 a13a 4977 00bd
00000030: cee3 ddbc d0b2 2a3d c325 63bc f983 223d
00000040: 30e7 66bc 6e3c d43c cdb6 483d 0938 34bd
00000050: 6057 363d e2b2 c53c 3afe 75bd fc92 dbbb
00000060: ca9d c43c bde5 2c3d bd7f babc a070 28bc
00000070: c6e5 49bd 0209 65bd c94f 7cbd b39b 60bd
0.0020627258 -0.008457485 0.0060244156 0.01927593 -0.05663094 -0.0023809145 -0.048182413 -0.01756
-0.007845795 -0.04012195 0.0012341058 -0.03136376 -0.027086165 0.041674435 -0.013863984 0.03967664
-0.014093205 0.025907721 0.049002457 -0.04399875 0.04451692 0.02413315 -0.060056902 -0.0067008715
0.024001021 0.042211283 -0.022765988 -0.010280758 -0.049291395 -0.055916794 -0.061599527 -0.054835986

conv3.weight f4 [64, 32, 4, 4]
00000000: c752 e0bc 31cd 25bd c432 bc3c 9d27 053c
00000010: a06f 85bc 2499 b1ba 480e 6a3c 7181 db3c
00000020: bc6f 1abd dc72 0fbd 1a09 b73c 29f1 293d
00000030: e5b4 e23c c976 0dbd 2c06 f83b 2111 8bbc
00000040: 8cfc c8bc b628 4bbc c048 3cbb 4c52 e0b6
00000050: 0dd8 bfbc f373 6fbc 2f78 cebc c2f2 f03c
00000060: 5883 463c 3872 d13b 44c8 503c fe00 9c3c
00000070: 52f7 c73c e8f8 a6bb b900 1b3c 2e1c bb3c
00000080: 0f60 71bb bebf a3bc 374c 4e3c f7bc e13b
00000090: 32fe e63b 97fc b0bc 4737 3d3b 101c 233d
000000a0: 013f c2bb 8c9e bb3c 8909 12bd e332 633d
000000b0: 525f 253c bdac 2fbd 7b6e 07bd 168d 613d
000000c0: 8bda 83bb f004 b3ba a1e9 e4bc 0610 e13c
000000d0: a108 743c c396 1fbd d893 813c 83ec 2a3d
000000e0: bc7b d6bb 22ac 293c 4879 de3c dc43 4dbc
000000f0: 10dc 5f3b 6ee1 b0bb 44a8 18bd d544 55bc
00000100: b709 a33c ccb1 b2bc c24b 41b9 3c44 d13a
00000110: 2b05 8d3b a571 5abd 9b5b d43c f919 85bc
00000120: daa9 16bb f53a 4fbb 3ca5 3abd b741 8f3c
00000130: 1693 79bc e805 6b3c d3d7 d9bc a45e 94b9
00000140: 4b54 873d 209b 563c a2d5 083c f9d8 8fba
00000150: ddda 62bc cdf7 413c 1a13 24bc cdc8 523d
00000160: 978a 363c 31c4 ba3c afe8 46bc 7c60 263d
00000170: f8a3 6e3d bc67 033b dae5 8f3d 71f4 873c
00000180: 9dd8 f03c 9a1f d5bc b3d3 b73b 832a b63c
00000190: 9ae9 193c b14b e8bc 5436 b6bc 04dd dcbc
000001a0: 1d30 f6bc 1a24 c4bc 9a3a c0bc 8a46 3fbc
000001b0: 9f50 6b3d 764e afbc bd3b 53bc fc43 aebc
000001c0: a75e dcbb 9c9b e7bc 6480 b53b e576 3a3c
000001d0: 78de ed3c c36e e73c 04a1 1a3b 9075 d6bc
000001e0: f0b9 643d 12f1 a63c 5d4c 3f3c 33fd 0abd
000001f0: 1757 5f3d 7d42 9e3a 05f9 0fbb 137a 52bc
00000200: f996 c5bc 26fd d9bc 09fc c0bc 098b 353d
00000210: 7e12 ebbc 43d6 963c f982 46bd d01b 583b
00000220: 5ebd 8cbc 9ee9 403c e19f 613c 5bad 0dbb
00000230: 2d65 813c 7bc6 cabb c86b 983b 0d44 4d3c
00000240: 8eb0 85bd adec 1f3b c846 4b3d e302 f53c
00000250: 424e 91bd a8eb 5e3c b663 223d b4dd 52bd
00000260: 9de6 3cbd 11fe ebbb d3c1 fc3c 4bf7 b4bc
00000270: 1614 b23b 5933 88bc 7039 393c 3ba0 2f3c
00000280: 218a 383d 5105 a4bc 2b42 cabc 2031 1e3d
00000290: e2de 333c 4773 39bd 78a3 6c39 75c2 af3c
000002a0: 0dae 283d 57c6 17bd 8315 bf3a 8180 da3b
000002b0: 1704 33bc 9cef c03c c4ae d1bc 36f8 be3c
000002c0: 19ce 043d 704e 18bc 3538 e9bc f2f0 393c
000002d0: f931 e8bc d8d0 553c 8aa6 0abb b61f 1f3d
000002e0: 88f1 23bd 51e2 1abd 0a18 2ebd 116b 28bd
000002f0: 18b7 a13c 6b14 fcbc 8fe6 9a3a 821e 2b3c
00000300: fa6f 893c b3e0 4b3d a83a 85bc 6d38 29bc
00000310: 4f8f 69bb c44c f83c 09f6 27bc d482 373d
00000320: 5805 843c 3dc9 7dbc 2a69 20bd 46a5 f33b
00000330: 49e6 93bc 22f3 e73c 60de 83bc d9a3 ccbc
00000340: 774b c5bc 3ffb 18bc 3355 47bd b5a2 1dbd
00000350: 6b3b b0bc c1ff 4e3c 5969 44bd 3031 38bd
00000360: 5ba8 7fbc 7b26 80bb 8c9a b03a d8a7 9bbc
00000370: 87e1 8dbb 0cf0 cc3c 5e37 58bc 56dd 06bd
00000380: b204 8fba 85ec 053c 29ff c6bc 0e22 1c3c
00000390: bed0 5c3b de25 74bc 7eff 00bd 02b3 bebc
000003a0: af37 1f3d 5d93 2cbd 3ca1 053d 28b1 6fbc
000003b0: 38f4 88bc bbfb 0f3d 8125 12bd 6dee 93bc
000003c0: af29 e43c 941a 18bc 9636 01bd 406b 55bd
000003d0: 3636 623d e74c bfbc fd51 983c a679 21bd
000003e0: 3973 9c3b 3c8f d53c 6326 7e3c 41a8 29bd
000003f0: 49d5 333d 7c51 273d 9c8d ec3c 5160 173d
-0.027383221 -0.04047889 0.022973426 0.00812712 -0.016288579 -0.0013549668 0.0142856315 0.02679512
-0.037704214 -0.035021648 0.022343207 0.041489754 0.027674148 -0.03453711 0.007569095 -0.016975941
-0.024534486 -0.012399843 -0.0028729886 -6.685301e-06 -0.02341845 -0.014615047 -0.025203792 0.029412631
0.012116276 0.0063917898 0.01274306 0.019043442 0.024409924 -0.00509559 0.0094606215 0.022840586
-0.0036830937 -0.01998889 0.012591413 0.0068889814 0.0070493454 -0.02160482 0.002887206 0.039821684
-0.005927921 0.02290275 -0.035653625 0.05546845 0.010093527 -0.042889345 -0.033064347 0.05506619
-0.004023855 -0.0013658088 -0.027943434 0.02747346 0.014894635 -0.038962137 0.015817568 0.04172946
-0.006545512 0.010355981 0.02715744 -0.012528386 0.0034158267 -0.005397967 -0.037269846 -0.013016899
0.019902093 -0.021813296 -0.00018434136 0.001596577 0.0043035946 -0.053331036 0.025922587 -0.016247736
-0.0022989423 -0.0031620834 -0.045567736 0.01748739 -0.015232822 0.01434467 -0.02659217 -0.00028299273
0.066078745 0.013098508 0.008351715 -0.0010974697 -0.013846126 0.0118388655 -0.01001432 0.05146103
0.011141441 0.02279863 -0.012140437 0.04061936 0.05826184 0.0020050844 0.070262626 0.016596051
0.029400164 -0.026016045 0.0056099533 0.022237068 0.009394074 -0.028356405 -0.022242703 -0.026960857
-0.03005224 -0.023942996 -0.023465443 -0.011674533 0.057449933 -0.021399718 -0.012892661 -0.021272652
-0.0067251506 -0.028272443 0.005538987 0.011380886 0.029036745 0.028251057 0.0023594508 -0.026179105
0.055841386 0.020378623 0.011675921 -0.033932876 0.054526415 0.0012074258 -0.0021968496 -0.012846488
-0.024119841 -0.026609968 -0.02355768 0.044322047 -0.028695341 0.018412715 -0.04846475 0.0032975562
-0.017180141 0.011774449 0.013771028 -0.002161822 0.015795315 -0.0061882115 0.0046515204 0.012528432
-0.06527816 0.0024402544 0.04962805 0.029908603 -0.070950046 0.0136059895 0.039645873 -0.051480964
-0.046118367 -0.007201918 0.030854141 -0.022090575 0.0054345233 -0.016626047 0.011305198 0.010719354
0.045053605 -0.020022066 -0.024689754 0.038621068 0.010978432 -0.045275953 0.0002256761 0.021455029
0.041181613 -0.037054386 0.0014578555 0.006668151 -0.010926268 0.023551755 -0.02559603 0.023311716
0.032423113 -0.009296045 -0.028469184 0.01134895 -0.028344141 0.0130502805 -0.0021156394 0.0388486
-0.040025264 -0.03781349 -0.042503394 -0.04111773 0.019740626 -0.030771455 0.0011817979 0.010444285
0.016777027 0.049774837 -0.016263321 -0.010328394 -0.0035638397 0.030310042 -0.01025153 0.0448025
0.01611583 -0.0154898735 -0.039162792 0.0074354736 -0.018054144 0.028314177 -0.016097248 -0.024980472
-0.024083836 -0.0093372455 -0.048665237 -0.038485248 -0.021512708 0.012634219 -0.04795203 -0.044968784
-0.015604104 -0.003910837 0.0013473793 -0.019000933 -0.0043298635 0.025016807 -0.013196794 -0.032925926
-0.0010911433 0.008174066 -0.024291592 0.009529604 0.0033693756 -0.014901606 -0.031493656 -0.023278717
0.038871463 -0.042132724 0.03262447 -0.01462964 -0.016718015 0.03515218 -0.035680298 -0.018058026
0.027851908 -0.0092836805 -0.031546198 -0.052104235 0.05522748 -0.0233521 0.018593783 -0.039422654
0.004774478 0.026069276 0.015512082 -0.041420225 0.043904576 0.040849194 0.028876118 0.03695709

conv3.bias f4 [64]
00000000: 9647 83bd 3a1f 6c3d 06e9 b3bc 41e2 413c
00000010: e8aa e4bc fa67 e5bb 3d32 8dbc d592 403c
00000020: ba20 1e3c 0c4d 803c 236b acba 0cf9 ea3c
00000030: 5f63 aa3b 8e6f 54bd 8b7a a73c 016d 233c
00000040: 9adf 4fbd b4e1 f0bc 4629 85bc 0865 45bc
00000050: 0cba 6a3c 5555 22bd d284 fcbc a0bd ea3c
00000060: f7ca 32bc a7b2 78bb 3a78 91bc adfc 353d
00000070: 32c8 ebbc 6992 673c e0ee 07bd 562c 09bd
00000080: 647c 2abd 7a62 b23c 33fc 703b eb62 e8b9
00000090: 91a8 2dbd 7320 30bd a721 10bc 1d34 d83c
000000a0: 7cfc 933c 62f6 d83c cbf7 18bc 2f86 263d
000000b0: e7aa 1d3c 0095 7d3c 2b8c 09bd a6fd bfbc
000000c0: b418 143d 8301 14bd 4bc3 41bd 7277 bdb9
000000d0: 00cc ac3b 08a5 1bbd 08d7 0dbd 7c4e 4cbd
000000e0: 25ce 77bc d8b6 46bd 7e06 2ebc a657 77bc
000000f0: 5123 99bc 904d 9b3b 6854 013c 1b93 683c
-0.06410138 0.057646967 -0.0219617 0.011833728 -0.027913526 -0.0070009204 -0.01723587 0.0117537575
0.009651357 0.015661739 -0.0013154488 0.028683208 0.0051998342 -0.0518642 0.020444175 0.009974719
-0.050750352 -0.029404499 -0.016255032 -0.0120480135 0.014326584 -0.03963216 -0.030825052 0.028654873
-0.010912648 -0.0037948282 -0.017757524 0.044430424 -0.028781984 0.014134028 -0.033186793 -0.033489548
-0.041622534 0.021775473 0.0036771416 -0.00044324188 -0.042397086 -0.042999696 -0.008797086 0.026392037
0.01806473 0.026484672 -0.009336422 0.04065531 0.009623266 0.015477419 -0.03358094 -0.023436379
0.03615637 -0.036134254 -0.047305387 -0.00036137883 0.005273342 -0.037999183 -0.034628898 -0.049879536
-0.015124832 -0.048514217 -0.010621665 -0.015096581 -0.018693598 0.004739471 0.007893659 0.014195229

fc1.weight f4 [128, 960]
00000000: 9005 95bb 594b 8fbc 68a1 abbb 2dfe be3c
00000010: cb08 3c3c 1327 b2bc 6df4 f03c 0693 a1b9
00000020: 51a2 99bc 9784 c93b 6e94 a33c ca6f c9bc
00000030: b61f 4c3b 71b5 b33c 4a35 50bb f164 393c
00000040: 0ea4 ad3c bf49 27bc ef4e cbbb cf98 48bc
00000050: f643 84bc 5ef6 79bc b5f9 9f3c aafe 313c
00000060: 27c1 ecbc c357 edbb 2d41 953c 1b90 9bbc
00000070: c6cd a7bc 73d9 3ebc a7ff d23c d306 aa3b
00000080: 6c8b 873c ceb7 d2bc 1fa5 273c dca0 983c
00000090: a3c6 c7bc b054 91bc 52d7 ae3c d00e 1a3a
000000a0: 2a46 e8bc cd69 653c dcf5 ce3c db77 313c
000000b0: 817e 2b3c 503c 5a3c 240e 923b 75cc dbbc
000000c0: 0b99 1cbc 5f45 52bb 3638 493c cc47 b13a
000000d0: ff55 0f3c d300 51bc 390b 923c ec8c 05bd
000000e0: 29d0 363c ae8d 01bd ac0b 9d3c e355 853c
000000f0: 234f e4bc b6a9 84bc 7ed6 e2bc c564 c33c
00000100: 11ca f4bc e7dd e93b 1d72 8c3c fd27 723c
00000110: 6aa7 14bc b511 c0bb cbf1 05bd ce75 ec3c
00000120: 7bd2 de3c 9ee3 d1bc 05ea 83bc 82c9 6abc
00000130: 91c4 06bd db1a e3bc 80c4 ba3c 89f8 713c
00000140: 47df 94bc 30a9 a03c 7aba 833c 16d8 963c
00000150: 36e6 deba 6c4b 3bbc e0cb 8bbc cf54 03bd
00000160: bd5c 47bc 3224 043d e47d 5c3b 1c89 d93a
00000170: 613d f93a b47b eebc de7b 56bb d412 ed3c
00000180: bc5a f8bc 19e5 333c 28b1 fcbc b316 80bc
00000190: 3d9f e5bc 16df 8f3b d25a 0ebd d563 67bc
000001a0: 0946 bfbc 2649 b4bb fa4c fabc ab40 863c
000001b0: b2c9 adbc 467d bf3b 7283 693c dbe8 db3c
000001c0: fccf a23c 400a b73c b9f2 283c a644 f7bc
000001d0: 3bc8 433c f37c a83c 1e72 bbbc 0b93 383c
000001e0: 5d2e 923c 35da 0abb 3581 953b 959d 03bd
000001f0: c71b bb3c ba70 743b 7b9e a1bc af6d e9bc
00000200: b98d a2bb f20f 9ebc 272a f7bc cb85 a8ba
00000210: f6b2 f0bc d53b e93b 027b c93c ad48 c53c
00000220: 1d96 5abc 555b 12bc 4d7d 0dbd 158b 65bc
00000230: 95dc 80bc 1e13 30bc 85f7 0ebd 9aab ae3c
00000240: 2d17 d6bc 79a4 88bc c65b c0bc a30d d73b
00000250: 85b8 57bc 8b6e 77bb 906f 6c3a 9f76 7a3b
00000260: 4ba8 8b3c 857b a1bc 7406 93bb d470 97bc
00000270: 5a03 b73c 4f4d 39bb f915 c23c a12a 77bc
00000280: 0ee5 713a 7044 26bc 1613 7e3c 95df d93c
00000290: 63b3 ccbc adbd 913c c6ad b6bc b343 643c
000002a0: 83c1 9f3c 75f0 c6bc d9fa 953c 7eeb dfbc
000002b0: 7b77 6a3c c4c0 a63c 54f1 c53c 81c0 ac3c
000002c0: a02a ddba b763 963c 83df 7c3c e148 bdbc
000002d0: e37f fabc 5df1 f9bc 5f4f 49bb 3740 2239
000002e0: 3552 bc3b 4145 5fbb ccaa ea3b ed07 b5bb
000002f0: cbab 903c c064 05bd 7aa3 90bc 512e 323c
00000300: 9a2e 953b f6ee 683c bf4a 49bc 4fdc 003c
00000310: 0dab eb3c 4988 e53c e863 98bc 69ec eb3c
00000320: 2d47 b13c 7a76 00bd f52e 81ba 7531 9bbc
00000330: 674c 42bc 4de3 08bd 8077 823c 3e89 21bc
00000340: d3c4 f0bc 9a90 5cbc 9dc3 ca3c f2b9 36bc
00000350: 0972 ec3c 033a df3c 7012 673c 4fab c33b
00000360: fb16 96bb 10f4 483c afa6 8fbc 7b5e bebc
00000370: acb8 dfbc 04d7 963c 3e66 e13a 6948 fbbc
00000380: 24a9 f5bc 288a b93c 99d9 f5bc 1010 f2bc
00000390: 9a82 44bc f63d fcbb be97 863b 3759 92bb
000003a0: 08ef 70bc 6249 78bc 474d 9b3b a3a8 663b
000003b0: 1e2f 8bbc 98f8 58ba da26 b73c fe30 50bc
000003c0: 07ea 083b f29e 20bc 437c 283a dc0f f83a
000003d0: 042d 82bc b6c1 d23c 8477 6e3c 4243 fdbc
000003e0: 261e c7bb d2d1 1fbc b611 613b 46c8 cf3c
000003f0: 43ac ecbc f7f7 07bd cce3 02bd 9836 b5bc
-0.0045477822 -0.017491983 -0.005237747 0.02331456 0.011476706 -0.021747148 0.029413426 -0.00030817854
-0.018754156 0.006149839 0.019968238 -0.024589438 0.003114683 0.021937104 -0.0031770044 0.01131557
0.021196391 -0.0102104535 -0.006204478 -0.012243464 -0.016145688 -0.015256492 0.01952825 0.010863939
-0.028900696 -0.007243128 0.018219555 -0.018989613 -0.020483863 -0.011648524 0.02575667 0.005188802
0.016545974 -0.02572241 0.010232239 0.018631391 -0.02438671 -0.017740577 0.021342907 0.0005876841
-0.02835377 0.014002276 0.02526372 0.010831798 0.010467173 0.013320044 0.004457252 -0.026830891
-0.009557973 -0.0032084805 0.012281468 0.0013525425 0.00874853 -0.012756544 0.017827617 -0.032605097
0.011158028 -0.031629257 0.019170605 0.016276306 -0.027869767 -0.016194206 -0.027690168 0.023851762
-0.029881509 0.0071370485 0.017144257 0.014780042 -0.009073118 -0.005861486 -0.032701295 0.028864767
0.027199974 -0.025621232 -0.0161028 -0.01433027 -0.032902304 -0.027722767 0.022798777 0.014768728
-0.018172873 0.019611925 0.01608013 0.018413585 -0.0017005864 -0.011431556 -0.017064989 -0.0320633
-0.012168107 0.03226108 0.0033644373 0.0016596648 0.0019015485 -0.02911172 -0.003272764 0.028939642
-0.030316703 0.010979914 -0.030846193 -0.015635824 -0.028030032 0.0043906076 -0.03475458 -0.014122923
-0.023348825 -0.005501884 -0.030554283 0.016388258 -0.02121434 0.005843791 0.01425253 0.026844433
0.019874565 0.022343755 0.010311776 -0.030184101 0.011949594 0.020567393 -0.022881564 0.0112655265
0.017844373 -0.002118719 0.004562522 -0.032132704 0.022840394 0.0037298636 -0.01972889 -0.028494684
-0.0049607423 -0.019294713 -0.030171467 -0.0012857256 -0.02938221 0.0071177282 0.024594788 0.024082506
-0.013341454 -0.008932908 -0.034543324 -0.0140102105 -0.015730182 -0.010746745 -0.03490402 0.02132206
-0.026134098 -0.01667999 -0.023481261 0.006562905 -0.0131665515 -0.0037755098 0.00090193097 0.0038217676
0.017048022 -0.019712219 -0.0044868533 -0.018486418 0.022340465 -0.002827484 0.023692118 -0.015085847
0.0009227552 -0.010148153 0.01550748 0.02659587 -0.024987882 0.01779064 -0.022299659 0.013932156
0.019501453 -0.02428458 0.01830809 -0.027333971 0.014310713 0.02035559 0.024162926 0.021087887
-0.0016873665 0.018358095 0.015434149 -0.02310604 -0.03057856 -0.030510599 -0.0030717475 0.00015473446
0.0057471045 -0.0034068378 0.007161474 -0.0055246265 0.017660042 -0.032566786 -0.017656077 0.0108753005
0.0045526745 0.014217129 -0.012285887 0.007865026 0.028768087 0.028019087 -0.018602327 0.028799253
0.021640385 -0.031362988 -0.0009855913 -0.018944481 -0.011859036 -0.033419896 0.015926123 -0.009859381
-0.029390728 -0.01346221 0.024751479 -0.011152731 0.02886297 0.027249342 0.014103517 0.0059713493
-0.004580376 0.01226522 -0.017535536 -0.023238411 -0.027309738 0.018413074 0.0017196608 -0.030674176
-0.02998788 0.022648886 -0.030010985 -0.029548675 -0.011994028 -0.007697816 0.0041074445 -0.0044662016
-0.014705427 -0.015154215 0.004739437 0.003519573 -0.01699024 -0.00082767894 0.022357393 -0.012706993
0.0020891444 -0.0098035205 0.0006427208 0.0018925625 -0.015890606 0.025727134 0.014554862 -0.03091586
-0.006076592 -0.009754615 0.0034342832 0.025364053 -0.028890735 -0.033195462 -0.031955525 -0.022120759

fc1.bias f4 [128]
00000000: 363b b4bc 43fd 5dbc a5d8 1ebb 51e8 e53c
00000010: 803d 03bd fb73 05bc 0a57 b8bc f7be dabc
00000020: 5573 903c 6c0e 14bd aef3 e43c f61e b63c
00000030: b8e7 5f3c 7ad7 c43c 8935 d13b f404 a8bc
00000040: 8d4d b3bc 951e e33a 86fd d3bc b265 a6bb
00000050: 7a55 8abc 6c53 14bd e70a 14ba eb95 b0bb
00000060: dde6 8d3b cd81 fbbc bfda 3b3c 5e9a c43c
00000070: 6ea7 8abc f465 dc3b a2d5 c2b9 98d4 d83c
00000080: a990 dc3c 0fc9 2cbc b91a b6bc 6880 39bc
00000090: 45ac a0bc b2d9 62bc ecb1 8fbc b65b 063d
000000a0: 8d86 90bb c839 2d3c 7830 c83c 7f15 5abc
000000b0: bad4 b7bc 569f 673b 16c9 2eba 8528 fa3c
000000c0: fb4b 433b bf8b 183c 0712 35bc 1597 b8bc
000000d0: 9e00 a8bb dfd8 9b3a 2f0c 11bd 5141 adbc
000000e0: 618f 87bc 511c 603a 725b 61bb 1ab1 56bc
000000f0: 7de3 b5bc 5ab2 17bb 8e28 ecbc 45f5 ce3c
00000100: c753 78bc 4453 643b ec46 83bc b4e2 ce3a
00000110: 2a23 b4bc 1dd5 b83c 2ade c4bc 8cda 8abc
00000120: ba78 5bbc 89b4 0abd 1ddc 883c 2cab ab3b
00000130: 56f8 be3c b454 d6bc 702c b0bc 045a 963c
00000140: 21ef ac3b d144 3cbc 040f bc3c 3964 8cbb
00000150: f462 fbbc 2adb 1a3c 1a0e 203c daaa 65bb
00000160: dcea ca3a 3ed2 1fbb 7ae7 c33b 82f0 70bc
00000170: a628 5e39 15dd dc3c cef0 47bc 3b2a 5d3c
00000180: 699d 09bd 3b26 ba3c 4057 8b3b 1d13 cb3c
00000190: c09c 87bc 8b8f d3bc 5566 373c c191 d9bb
000001a0: 12de 7ebb 890f 83bc e005 b0bc a85c 5b3c
000001b0: c55d dd3c 51fa 303c d591 c7bb 1e69 563c
000001c0: 2435 6abb 6b38 b43c 3e46 aebc 8886 563c
000001d0: d79a 38bc 0b4c 093c e6cc 4ebc 9583 203b
000001e0: 5190 edbc 47ff b33c 4765 d1bc 9556 9c3c
000001f0: 36e5 a63c e215 9abc 37ae a53c bd8b adbc
-0.02200089 -0.013549152 -0.0024238017 0.028064879 -0.032041073 -0.008145328 -0.022502441 -0.026702387
0.01763312 -0.036146566 0.027948227 0.02223156 0.013666086 0.024028528 0.0063845557 -0.020510174
-0.021887565 0.001732784 -0.025877725 -0.005078041 -0.016886462 -0.03621237 -0.00056473765 -0.0053889654
0.0043304996 -0.030701542 0.011465727 0.02399939 -0.01692554 0.006726021 -0.00037161732 0.02646856
0.026924448 -0.010545983 -0.02222954 -0.011322118 -0.019613395 -0.013845848 -0.017540894 0.032802306
-0.004410571 0.010572858 0.024437174 -0.013310789 -0.022440303 0.0035342774 -0.00066675374 0.0305369
0.0029799927 0.009310662 -0.011051661 -0.022532979 -0.0051270267 0.0011890194 -0.03541201 -0.02114931
-0.01654786 0.00085491413 -0.003438678 -0.013103748 -0.022203201 -0.0023147077 -0.028827932 0.025263438
-0.015156693 0.003483967 -0.01602503 0.0015784116 -0.021989424 0.022562558 -0.024031717 -0.016949914
-0.013395483 -0.033863578 0.01670652 0.005238911 0.023311775 -0.026163436 -0.021505564 0.01835347
0.00527753 -0.0114910165 0.022956379 -0.0042844084 -0.030686833 0.009451667 0.009768987 -0.0035044462
0.001548137 -0.0024386789 0.005978522 -0.014705779 0.00021186713 0.026960889 -0.012203408 0.013498838
-0.033597384 0.022723308 0.0042523444 0.024789387 -0.016554236 -0.025825283 0.011193831 -0.0066396897
-0.0038889688 -0.015998619 -0.021487176 0.01338879 0.027022252 0.010801868 -0.0060903826 0.013086585
-0.003573724 0.021999558 -0.021273728 0.013093598 -0.011267385 0.008379946 -0.012622094 0.0024492492
-0.02899948 0.021972312 -0.025560988 0.019084254 0.020372968 -0.018809263 0.020224674 -0.021184796

fc2.weight f4 [4, 128]
00000000: 5fcd 983d fd18 d4bd cc02 363d 550d 7abd
00000010: 8bec 77bd ea68 213d 3b43 bdbc a572 8a3b
00000020: 7b83 6e3b 829f 953c b4a8 a6bd 05b0 e53c
00000030: 12ef 923d 89c0 03bd c2db 253d d580 9e3d
00000040: fbe2 87bd 7668 8a3c 100b 5cbd 0fdb faba
00000050: 08b0 d93c de7f 90bc bfd5 01bd 695f 9f3c
00000060: ec49 17bd 83e0 57bd 214d 933d b768 893d
00000070: 4580 b83d 3cdf 133c 7291 423d 399e 21bd
00000080: 1715 29bc 44c3 923d f8aa adbd ac26 82bd
00000090: 23f3 7e3b d834 aabd f0ee c3bd 0b9f 043d
000000a0: b5f3 6abd bc7f 4a3d 53f9 d63c 22ea c0bd
000000b0: 52e2 ed3c 7cb2 5b3d 8c9a f439 74ad b53d
000000c0: 68ba 6d3d 1a5e 923d 6619 98bd 169f 43bd
000000d0: eaaf 053d f63f b1bc 324b b43c 32ec 2dbd
000000e0: c66e 0bbe ba87 fe3c a8a6 9c3d e6dc 8abd
000000f0: af15 03b8 249d 8c3c c812 803d 9a26 f2bc
00000100: 5214 543d d072 603c 1451 84bd 4a7d 673d
00000110: 4d34 ec3c f8b0 8f3d f9b6 72bd 64e4 acbd
00000120: 4085 a5bc 282c 8fbd 865c c0bd dd61 913c
00000130: 94cc 213c ddd7 c23d 1bc2 4bbc 473b 093a
00000140: 9044 9ebd 5014 c63a ef4e b7bd 5d73 943d
00000150: 6c66 63bd 4625 a23c f11f aebd fc74 8a3d
00000160: 2582 ac3c 239c 153c 54b5 6ebd ed45 163c
00000170: 6347 85bd 44f0 c4bd 433e 653d af73 7d3d
00000180: 60eb 143c 39d3 7c3c 44e0 2ebd f8a2 ad3d
00000190: ff72 8c3d 63a3 873d 2042 8d3d 512e 133d
000001a0: c92d 053d 2758 bfbb bcdd a7bd 29d3 603d
000001b0: 860e 3a3c 886a 0f3d fdc6 af3d 50af 4e3d
000001c0: 9cce 07be 1b66 bc3d d9a1 7dbd 3acd 92bd
000001d0: 1e3e 513d cec3 34bc 8c15 9abd 3d05 c23b
000001e0: ef98 a8bc e99b 2ebd 7aac bbbc 4138 84bc
000001f0: fb4f 883c 9194 6c3c 8bdb 4e3b 95fc 39ba
00000200: 6b85 b9bb dfeb c5bb ac3c 583d 67bb 853d
00000210: 26ea 853d 959c 9d3d 9dc1 84bc c46c 56bd
00000220: 6c39 b43d e23d 3e3c a4c2 78bd 3186 053d
00000230: a893 c93d 3581 7f3d 34e0 553c 929f 1bbc
00000240: 5b00 163d 613d 063d c6ad 5abd b707 883d
00000250: d026 023c c18b 5f3d 83a9 0b3d f56c 323b
00000260: 05e8 10be 53c9 4a3c 9f49 97bd 0b76 2bbc
00000270: 01a9 6fbd f2cb 65bc 7d26 723d ed9b 9bbd
00000280: ce18 3bbd 70ef 8fbd cc5e 8bbd 5813 e33c
00000290: 5e50 a93d 778b 3a3d e21f 823d fcbc f63d
000002a0: d4ff 7abd a7bb 6cbd 29ca aebc ea21 a53d
000002b0: 7ec8 293d 969f ec3c 20ef 113d c13c 753d
000002c0: d6e3 4bbd 9204 22bd 5a32 823d 70fc 1e3c
000002d0: ea74 a7bd 3017 443d 5783 1c3d b59b dabd
000002e0: bf83 c43d 8122 71bd 4036 a8bd 5f3d 933d
000002f0: efec 93bd e137 223d e75a bbbc dfa0 2fbd
00000300: 69e7 c6bd f44f 483d 2255 493c 1ad0 0dbd
00000310: d131 a73c 18e8 9a3d e193 7fbd 2906 34bd
00000320: fb7d 26bd 68df f3bc 008b 783d f80d bbbd
00000330: 6178 2c3d d94d 70bd e3d4 fd3c 1ae7 ad3c
00000340: 70db bb3d 2036 7fbd 07a8 2f3d 66e2 523d
00000350: 6125 91bd 18b1 37bd 7b22 cdbd cd90 88bd
00000360: 47dd bebd 36a4 cebc de6a afbd 793a c4bd
00000370: 536c 84bd 6616 a53c 5970 18bd 1bfe 9ebd
00000380: 8a76 a1bc c9b5 043d 856d 7cbd 47f3 633b
00000390: 348b 2dbd 84ac bd3c 96cf b0bd dfce 3cbb
000003a0: d472 2ebd 2f1e f0bc c744 92bc d152 3c3d
000003b0: b551 853d 3067 2f3d f084 b13d c2da ed3c
000003c0: 1d5d 413c fc2b 82bd af09 943c f28d 3dbd
000003d0: 4c95 943d b604 1fbd cf13 643d 18d3 32bd
000003e0: 1da1 efbb e5a6 1d3c 49ac aebd bd32 e2bb
000003f0: cb4f 4e3d b2ab 5c3d 2a01 96bd ad06 95bc
0.074610464 -0.10356329 0.04443626 -0.06104787 -0.06052832 0.039406694 -0.023103347 0.0042250925
0.0036394286 0.018264536 -0.08137646 0.028038034 0.07174505 -0.032166038 0.04049278 0.077394165
-0.0663509 0.016895514 -0.053721488 -0.0019138771 0.026573196 -0.017639097 -0.031697985 0.019454675
-0.03693573 -0.052704345 0.071924455 0.06709426 0.090088405 0.009025391 0.04750199 -0.039457534
-0.01031997 0.0716615 -0.08479875 -0.06355032 0.0038902245 -0.083108604 -0.09567058 0.032378238
-0.057361323 0.049438223 0.026241934 -0.09419657 0.029038582 0.053637013 0.00046654453 0.08870974
0.0580391 0.07146855 -0.07426719 -0.047759138 0.032638468 -0.021636944 0.022008512 -0.04246158
-0.13616475 0.031070579 0.07648975 -0.06780414 -3.125303e-05 0.017164774 0.06253582 -0.029559422
0.05177719 0.013699248 -0.06460777 0.05651597 0.028833533 0.07016176 -0.059256528 -0.084419996
-0.02020514 -0.06990844 -0.093926474 0.01774686 0.009875435 0.09513829 -0.012436415 0.0005234968
-0.07727921 0.0015112255 -0.08950602 0.07248566 -0.0555176 0.019793164 -0.08502186 0.06760594
0.021058151 0.009131464 -0.058278397 0.009171945 -0.065077566 -0.096161395 0.05596758 0.061877903
0.009089321 0.015431219 -0.042694345 0.084783494 0.06857871 0.066229604 0.06897378 0.035932843
0.032514367 -0.005839366 -0.08196589 0.054888878 0.011356002 0.035013705 0.08582876 0.05046016
-0.13262409 0.091991626 -0.061921928 -0.0716805 0.05108463 -0.011033012 -0.07523641 0.0059210346
-0.020580737 -0.042629156 -0.022909392 -0.016140105 0.0166397 0.014439718 0.0031563963 -0.00070948276
-0.0056616566 -0.006040081 0.052792236 0.06529885 0.06538801 0.07695881 -0.016205603 -0.05234982
0.08800015 0.011611434 -0.0607325 0.032598678 0.09842616 0.06237908 0.0130539425 -0.009498494
0.036621433 0.03277338 -0.05338838 0.066420965 0.007943824 0.05457664 0.034097206 0.0027225588
-0.14151008 0.012377101 -0.07387089 -0.010465155 -0.058510784 -0.014025675 0.059118737 -0.075981
-0.045677952 -0.07028091 -0.068051904 0.027719185 0.08267282 0.04554316 0.063537374 0.12047765
-0.061279133 -0.057796147 -0.021336632 0.08063109 0.04145097 0.02888469 0.035628438 0.059872393
-0.04977783 -0.03955514 0.0635726 0.0097037405 -0.081765965 0.047873676 0.038211193 -0.1067423
0.09595441 -0.058870796 -0.08213472 0.0718944 -0.07222926 0.03960407 -0.022870494 -0.042878028
-0.09712107 0.048904374 0.012288364 -0.03462229 0.020409497 0.075637996 -0.062396888 -0.043951187
-0.040647488 -0.029769614 0.060679436 -0.09133524 0.04210699 -0.05866799 0.030985301 0.021228362
0.09172714 -0.062307477 0.042884853 0.05148544 -0.070872076 -0.044846624 -0.10016342 -0.066682436
-0.09319549 -0.025224786 -0.08565305 -0.09581465 -0.06465974 0.020152282 -0.037216518 -0.077633105
-0.019709844 0.032399926 -0.061627883 0.0034782456 -0.042369083 0.02315355 -0.08633344 -0.0028809828
-0.042589977 -0.029311268 -0.017855061 0.045977417 0.06509725 0.042823017 0.08667934 0.029034976
0.011801985 -0.063560456 0.018071024 -0.046277948 0.072550386 -0.038822852 0.055682953 -0.043658346
-0.0073129074 0.00962231 -0.085289545 -0.006903021 0.050369065 0.05387468 -0.07324441 -0.01819166

fc2.bias f4 [4]
00000000: c0a2 853d 5886 a3bd 6a08 863d 31ce 9c3d
0.06525183 -0.079846084 0.065445736 0.076565154
